…
":"https://localhost:8080/"},"id":"58x__GZ3wE1d","executionInfo":{"status":"ok","timestamp":1663138071884,"user_tz":-270,"elapsed":15,"user":{"displayName":"Soheil Koohi","userId":"04529429644948530935"}},"outputId":"404c6295-f902-4dd9-c0f0-c23e49de5ed5"},"execution_count":9,"outputs":[{"output_type":"stream","name":"stdout","text":["Model: \"generator\"\n","_________________________________________________________________\n"," Layer (type)                Output Shape              Param #   \n","=================================================================\n"," dense_5 (Dense)             (None, 6272)              809088    \n","                                                                 \n"," leaky_re_lu_2 (LeakyReLU)   (None, 6272)              0         \n","                                                                 \n"," reshape (Reshape)           (None, 7, 7, 128)         0         \n","                                                                 \n"," conv2d_transpose (Conv2DTra  (None, 14, 14, 128)      262272    \n"," nspose)                                                         \n","                                                                 \n"," leaky_re_lu_3 (LeakyReLU)   (None, 14, 14, 128)       0         \n","                                                                 \n"," conv2d_transpose_1 (Conv2DT  (None, 28, 28, 128)      262272    \n"," ranspose)                                                       \n","                                                                 \n"," leaky_re_lu_4 (LeakyReLU)   (None, 28, 28, 128)       0         \n","                                                                 \n"," conv2d_2 (Conv2D)           (None, 28, 28, 1)         6273      \n","                                                                 \n","=================================================================\n","Total params: 1,339,905\n","Trainable params: 1,339,905\n","Non-trainable params: 0\n","_________________________________________________________________\n"]}]},{"cell_type":"markdown","metadata":{"id":"qbeVle3XwIf1"},"source":["Here's a feature-com
…
